fig5_ms1/LightAttention_model/LA_model_wScrams.pth (torch, 11664 bytes, 2 tensors)

weights f4 [1, 1280]
0	0xbe5cccef	-0.21562551
1	0xbdb3e48f	-0.087838285
2	0x3d8cde4a	0.06878336
3	0x3e4a2b55	0.19743092
4	0x3e41f633	0.18941574
5	0x3e02d4ba	0.12776461
6	0x3c7a942e	0.015294118
7	0x3da9f985	0.08299545
8	0xbd88031b	-0.06641217
9	0x3dd007c5	0.10157732
10	0x3eeff19d	0.46864024
11	0xbea533c5	-0.3226606
12	0x3e434ec4	0.19073015
13	0xbbf1905a	-0.0073719444
14	0xbe158534	-0.14601594
15	0x3e103f7b	0.14086716
16	0x3dbfce17	0.093654804
17	0x3d900e51	0.07033981
18	0xbdcd8647	-0.10035377
19	0xbe79725d	-0.24360032
20	0xbd377458	-0.04478869
21	0xbe58fb4a	-0.21189609
22	0xbcf17941	-0.029476764
23	0x3e5eb736	0.21749577
24	0xbe70fc58	-0.23533762
25	0xbe91030d	-0.2832264
26	0x3e03092c	0.12796468
27	0x3e22995e	0.15878817
28	0xbe6edc13	-0.23326139
29	0x3c8c1ef2	0.0171046
30	0x3dc27de7	0.0949667
31	0xbe061d01	-0.13097002
32	0x3cab00fd	0.020874495
33	0x3e42f606	0.19039163
34	0xbd845a3a	-0.06462522
35	0xbd00c63b	-0.031439047
36	0xbdc7e809	-0.09761054
37	0xbe0b64ca	-0.13612667
38	0xbe639c4c	-0.22227591
39	0xbd241c38	-0.040065974
40	0x3d9c8647	0.07642799
41	0x3e23d7a5	0.1600023
42	0xbdc5c8be	-0.09657429
43	0xbedccdd4	-0.43125784
44	0x3e90a653	0.28251895
45	0x3e3fd2ac	0.18732709
46	0x3e419081	0.1890278
47	0x3dc37b4e	0.09545003
48	0x3cb6291b	0.022236397
49	0xbe2973f8	-0.16548145
50	0xbe867654	-0.26262152
51	0xbe3ad036	-0.18243489
52	0xbd112185	-0.035432357
53	0xbd2f19c4	-0.04274918
54	0xbdd6e376	-0.104926035
55	0xbde8c6f6	-0.11366074
56	0xbdc35199	-0.09537048
57	0x3cc2c6ec	0.023776494
58	0x3e189c9d	0.14903493
59	0x3e12b317	0.1432613
60	0x3e046e62	0.12932733
61	0xbe46aef6	-0.1940268
62	0x3dd02b30	0.10164487
63	0xbd5748e1	-0.052559737
64	0x3e13b830	0.1442573
65	0x3c9f3fd1	0.01943961
66	0x3d4563ba	0.04819081
67	0x3d942af5	0.07234756
68	0x3dac2eb8	0.084073484
69	0xbddab7dc	-0.106796
70	0xbe436b6d	-0.19083948
71	0x3c54c3c9	0.012986132
72	0xbe09cc3b	-0.13456814
73	0xbe251592	-0.1612151
74	0xbebcf30b	-0.36904177
75	0xbdc816a6	-0.09769945
76	0x3d84453a	0.064585164
77	0x3dcc26ae	0.09968315
78	0x3dffce02	0.12490465
79	0x3e2c719b	0.16840212
80	0x3e8b8ce8	0.2725594
81	0x3dc9b095	0.098481335
82	0xbd975f23	-0.07391193
83	0xbdbec777	-0.09315389
84	0xbe52dd37	-0.205922
85	0x3e45ac1e	0.19303939
86	0x3b1e09d6	0.002411475
87	0x3b822250	0.0039713755
88	0x3e24e7a8	0.16103995
89	0xbdbc6959	-0.09199781
90	0x3e19bfc1	0.15014555
91	0xbc87e8ba	-0.016590465
92	0xbe5337af	-0.2062671
93	0x3e365aeb	0.1780812
94	0xbeab17fd	-0.3341674
95	0xbe6a62dc	-0.22889274
96	0x3da41f7d	0.080138184
97	0xbd35a74e	-0.044349007
98	0xbe4907e4	-0.19631916
99	0x3dea8063	0.11450269
100	0xbe3196bd	-0.17342658
101	0x3db5c412	0.08875288
102	0xbca91b55	-0.020642916
103	0x3cfa6121	0.030563893
104	0xbe167508	-0.14693081
105	0x3e979814	0.29608214
106	0x3e97bef1	0.29637864
107	0xbd96c5e0	-0.073619604
108	0x3dcf9009	0.101348944
109	0xbe266383	-0.16248898
110	0xbda58839	-0.08082623
111	0xbdf78658	-0.12086171
112	0x3be00bae	0.00683733
113	0x3d73ca3e	0.059519045
114	0xbd71894a	-0.05896882
115	0x3e3730eb	0.17889754
116	0xbd246c49	-0.04014233
117	0xbe100707	-0.1406518
118	0x3e41f8d1	0.18942572
119	0xbd053e65	-0.032530207
120	0x3e495a4f	0.19663356
121	0xbe4e7e5c	-0.2016539
122	0x3ebbea16	0.3670203
123	0xbe3693da	-0.17829838
124	0xbbcfdea0	-0.0063436776
125	0x3e06c47c	0.1316089
126	0xbe382c32	-0.17985609
127	0xbe01fe67	-0.12694703
128	0xbeaa9cdc	-0.333228
129	0xbe13fe49	-0.14452471
130	0x3dabd37e	0.08389948
131	0xbd347e66	-0.044065855
132	0xbd044cd3	-0.032299828
133	0x3d4d2f28	0.0500938
134	0x3cc96c94	0.024587907
135	0xbe617301	-0.22016527
136	0x3e3bc610	0.18337274
137	0xbd2eb1cf	-0.04265004
138	0x3e321f45	0.17394741
139	0x3df834ac	0.12119421
140	0x3cd7b794	0.026332654
141	0x3e472ef6	0.19451508
142	0x3e8ca0c5	0.27466407
143	0xbcd916d1	-0.026500138
144	0xbc4f187c	-0.012640115
145	0xbd805522	-0.06266238
146	0xbda3c2de	-0.07996152
147	0xbe03e3e6	-0.12879905
148	0x3bd24ff2	0.0064182216
149	0x3e7db858	0.24777353
150	0xbdb108b9	-0.08644242
151	0x3c165d15	0.009177466
152	0xbd4489ab	-0.047982853
153	0xbdcfb0c4	-0.10141137
154	0x3e4b62fc	0.19861978
155	0xbe094b62	-0.13407663
156	0xbe04ca72	-0.12967852
157	0xbdc07bc4	-0.093986064
158	0xbdae18a6	-0.08500795
159	0xbbf6e3fe	-0.007534503
160	0xbd9c5e26	-0.07635145
161	0x3e25f624	0.16207176
162	0x3e80e16b	0.2517198
163	0xbe85c302	-0.26125342
164	0xbe57a230	-0.21057963
165	0x3cb22438	0.021745786
166	0x3dfd143a	0.123573735
167	0x3cef7b03	0.029233461
168	0x3e11a68d	0.1422369
169	0x3d78f23f	0.0607779
170	0xbda501c4	-0.080569774
171	0x3dc7ec59	0.097618766
172	0xbd8f67e8	-0.070022404
173	0xbe50636a	-0.20350423
174	0xbdc7b34c	-0.09750995
175	0xbdea216d	-0.11432157
176	0x3e53ed1f	0.20695923
177	0xbd741b52	-0.059596367
178	0x3db7a177	0.08966344
179	0x3d79ef02	0.06101895
180	0x3c80618d	0.015671516
181	0xbdbf3266	-0.093357846
182	0x3dea46f0	0.114393115
183	0xbe05b8d4	-0.13058788
184	0x3e9e94e3	0.30972967
185	0x3e022e9c	0.12713093
186	0x3e93536a	0.28774577
187	0xbd98508e	-0.074372396
188	0xbe2c86fb	-0.16848366
189	0x3e54ac28	0.20768797
190	0xbe4db6a0	-0.20089197
191	0x3e8e4c34	0.27792513
192	0x3d4e6c30	0.050396144
193	0xbcbfbaaa	-0.023404438
194	0xbe895878	-0.2682531
195	0x3d1ab1aa	0.03776709
196	0x3eaf1c2b	0.34201178
197	0x3c9a8768	0.018863395
198	0x3d8d81a4	0.069094926
199	0x3c4de8a2	0.012567671
200	0xbdf2e257	-0.11859577
201	0xbce08206	-0.02740575
202	0x3d9eaf0f	0.077482335
203	0xbdca0131	-0.098635085
204	0x3d776b06	0.0604048
205	0x3d0f3a83	0.03496791
206	0xbdec8603	-0.11548998
207	0xbd94843e	-0.07251786
208	0xbdabe00a	-0.083923414
209	0xbe7c6343	-0.2464724
210	0xbdd1878a	-0.1023093
211	0xbe88d757	-0.2672679
212	0xbddfafcc	-0.109222025
213	0x3d913d6e	0.07091795
214	0xbe19d039	-0.15020837
215	0xbdf621c0	-0.12018156
216	0xbcdedba6	-0.027204346
217	0xbe9a2a52	-0.30110413
218	0x3d6ac1b0	0.05731362
219	0x3e4d33be	0.2003927
220	0xbcecdc06	-0.02891351
221	0x3da929d9	0.08259935
222	0x3d18aeeb	0.03727619
223	0x3eaa9e3d	0.3332385
224	0x3d27d6c9	0.04097632
225	0x3e1fb8f0	0.15597892
226	0xbe7892fa	-0.24274817
227	0x3e9d54fd	0.30728903
228	0xb9bdd6e5	-0.00036208998
229	0xbd53f5ad	-0.051747967
230	0x3da9ca87	0.08290582
231	0xbe099897	-0.13437115
232	0x3e755ea4	0.23961884
233	0xbdfe3480	-0.12412357
234	0x3dca94f7	0.09891694
235	0x3db3c099	0.087769695
236	0xbe593676	-0.21212181
237	0xbdec47be	-0.11537121
238	0xbc1b4abf	-0.00947827
239	0x3bdb077e	0.0066842427
240	0xbe1efec7	-0.15526877
241	0x3e34e242	0.17664436
242	0x3dfa057e	0.12208079
243	0xbd5aa9bf	-0.05338454
244	0xbc5ee836	-0.013605168
245	0xbc705189	-0.014667877
246	0x3dd1c9f4	0.102435976
247	0xbd99d6a4	-0.075116426
248	0x3e68b2b9	0.22724427
249	0xbebe77fe	-0.37200922
250	0x3cbe87a2	0.023258034
251	0x3e35442b	0.17701785
252	0x3e05e7ed	0.13076754
253	0xbd6e7c2c	-0.05822389
254	0xbd08f47f	-0.033436295
255	0xbdc70239	-0.09717221

linear.weight f4 [1, 1280]
0	0x3ea94f99	0.3306854
1	0x3c49417e	0.012283681
2	0xbe4aaece	-0.19793245
3	0x3d691d88	0.05691293
4	0xbe86ea1c	-0.26350486
5	0xbe5ed8a1	-0.21762325
6	0xbe92d3e9	-0.286773
7	0x3e606d53	0.21916704
8	0xbe36f035	-0.17865069
9	0xbe245fdf	-0.16052197
10	0xbe90b8f1	-0.282661
11	0x3e4c316f	0.19940732
12	0x3ba787f1	0.005112641
13	0x3d13a291	0.036043707
14	0x3ed37e35	0.41307226
15	0xbe30d5fe	-0.17269132
16	0x3ca752eb	0.02042528
17	0xbda831ba	-0.082126096
18	0xbd0543af	-0.03253525
19	0xbd25c650	-0.04047233
20	0xbe134323	-0.1438108
21	0xbde93c82	-0.11388494
22	0xbe98b750	-0.29827356
23	0x3f0cd702	0.55015576
24	0x3e256f93	0.16155843
25	0xbd1b3277	-0.037889924
26	0xbcd4df7c	-0.025985472
27	0xbe428da3	-0.18999343
28	0x3eed0747	0.46294615
29	0xbd6ca26e	-0.057772093
30	0xbda14da9	-0.078761406
31	0x3d5f3771	0.054496232
32	0xbe9aa8a2	-0.30206782
33	0xbe787759	-0.24264278
34	0xbe5bfa8e	-0.21482298
35	0xbe95435f	-0.29152963
36	0xbeb176e5	-0.34661022
37	0x3d662ed8	0.056197017
38	0xbe96c025	-0.2944347
39	0x3de1fa79	0.11034102
40	0x3cf2e139	0.02964841
41	0xbee97f99	-0.45605162
42	0xbc928d00	-0.0178895
43	0xbe10cc8e	-0.14140531
44	0x3e04916b	0.12946098
45	0xbc909890	-0.017650872
46	0x3ec4a8b9	0.38409975
47	0xbe1e9e1f	-0.15490006
48	0xbe11640e	-0.14198324
49	0x3ce6e039	0.02818309
50	0x3e3da1e0	0.18518782
51	0xbc2be148	-0.010490723
52	0xbe965dd8	-0.29368472
53	0x3e856bc3	0.26058778
54	0x3e098787	0.13430606
55	0x3d8d1a27	0.06889754
56	0xbdb2d1b0	-0.08731401
57	0xbc1a7f2b	-0.009429733
58	0x3e142188	0.14465916
59	0xbd549f1e	-0.05190956
60	0x3d96dc3f	0.07366227
61	0xbdf2bcda	-0.11852427
62	0xbd8b4ebe	-0.06802128
63	0x3e8541d4	0.26026785
64	0xbe0c5928	-0.13705885
65	0xbe4cc16f	-0.19995664
66	0xbdb15d8f	-0.08660423
67	0x3de2f974	0.11082736
68	0x3c20a1f0	0.009804234
69	0xbeb6b21b	-0.3568276
70	0xbea67e7f	-0.32518384
71	0xbe007641	-0.1254511
72	0x3e979d59	0.29612234
73	0x3e94090d	0.28913155
74	0x3d12da41	0.035852674
75	0xbe207b5f	-0.15672062
76	0x3d2d9f7b	0.04238842
77	0xbe26c095	-0.16284402
78	0xbcb5250f	-0.022112397
79	0x3e9f5581	0.31119922
80	0x3c136bf5	0.008997907
81	0x3e964388	0.29348397
82	0x3d96cc69	0.07363207
83	0xbdf5125b	-0.11966392
84	0xbde48edd	-0.111600615
85	0x3e22e65f	0.15908192
86	0xbe14f23c	-0.1454553
87	0xbd97cf7c	-0.074126214
88	0x3e80511f	0.2506189
89	0xbd860636	-0.065441534
90	0x3d9fbe08	0.077999175
91	0xbe870c42	-0.2637654
92	0xbc50401c	-0.012710597
93	0x3e7fcbdb	0.24980108
94	0xbde33faf	-0.11096131
95	0xbda94d95	-0.08266751
96	0xbdef7c00	-0.11693573
97	0xbd418eeb	-0.047255438
98	0x3e9e5ac9	0.3092864
99	0xbe18da01	-0.14926912
100	0x3dcbe8bf	0.09956502
101	0xbe99971f	-0.2999811
102	0x3e7d6ed7	0.24749313
103	0x3ba653b3	0.0050758957
104	0x3d259240	0.040422678
105	0xbe029379	-0.12751569
106	0x3e89dd4c	0.2692665
107	0x3eb7f1fa	0.359268
108	0x3e4c9d02	0.19981769
109	0x3dd14f53	0.10220208
110	0x3e6a82ab	0.22901408
111	0x3d2d96e4	0.04238023
112	0xbe9067e9	-0.28204277
113	0xbd274200	-0.040834427
114	0x3ce11c86	0.027479421
115	0xbd390efc	-0.045180306
116	0xbdbff024	-0.09371975
117	0xbe0534ae	-0.13008377
118	0x3dc16690	0.0944339
119	0xbd4ead04	-0.05045797
120	0xbd6434cf	-0.055714425
121	0x3e036bba	0.12834063
122	0x3dca19ef	0.09868228
123	0x3cadde6c	0.021224223
124	0xbd41d14c	-0.04731874
125	0x3dc29eae	0.09502922
126	0xbea10e7d	-0.31456366
127	0xbdb91697	-0.09037512
128	0xbd83687f	-0.064164154
129	0x3eadd453	0.33951053
130	0x3f026879	0.5094066
131	0x3e8fcb90	0.28084993
132	0xbe42c379	-0.1901988
133	0xbdccb5e6	-0.09995632
134	0x3d29902c	0.04139726
135	0xbe780659	-0.24221171
136	0x3ed3b43d	0.41348448
137	0x3e527bb0	0.20554996
138	0x3e14bfc8	0.14526284
139	0x3deb4b97	0.11489027
140	0x3ea23ddc	0.3168782
141	0x3e0ef1b1	0.13959385
142	0x3de60443	0.112312816
143	0x3e3f1e4f	0.18663906
144	0x3e510ca2	0.20414975
145	0xbe3c8506	-0.1841012
146	0xbe70179a	-0.23446503
147	0xbe61b31b	-0.2204098
148	0xbd2418a4	-0.04006256
149	0x3df4009e	0.1191418
150	0xbe7820fa	-0.2423133
151	0xbce4cf7b	-0.027930966
152	0xbdf44d90	-0.119288564
153	0x3e9953c0	0.2994671
154	0x3e2283d4	0.15870601
155	0xbe3a0c06	-0.18168649
156	0xbe18dda3	-0.14928298
157	0xbd5c7022	-0.053817876
158	0xbebd46ae	-0.36967987
159	0x3d172cee	0.036908083
160	0xbd984b3e	-0.07436226
161	0xbde5890d	-0.11207781
162	0xbe94f82e	-0.29095596
163	0xbeb53089	-0.35388592
164	0xbe12554c	-0.1429035
165	0x3e30239f	0.17201088
166	0xbe02e13c	-0.12781233
167	0x3daa03db	0.083015166
168	0xbcbb31c4	-0.022850879
169	0xbe15ed1e	-0.14641234
170	0x3e5a11df	0.2129588
171	0xbe0af11d	-0.1356854
172	0xbe08a3c2	-0.13343719
173	0xbcf880c1	-0.030334832
174	0xbe3f92c2	-0.18708327
175	0xbddd7f1e	-0.10815261
176	0x3de2b810	0.110702634
177	0x3e781efb	0.24230568
178	0x3e36ba6c	0.17844552
179	0xbe6e5a24	-0.23276573
180	0xbea3e661	-0.32011703
181	0x3cb6d720	0.022319376
182	0xbd50cde0	-0.050977588
183	0xbd2220ab	-0.039581936
184	0x3e9eb9a0	0.31000996
185	0x3cc1a465	0.02363796
186	0xbcc5ceb1	-0.02414641
187	0x3dadd344	0.08487561
188	0x3cde8fe1	0.027168216
189	0x3e3150c0	0.1731596
190	0x3e6ffc12	0.23436001
191	0x3bcc8ecd	0.006242609
192	0x3d9ffb5f	0.07811617
193	0x3e562ca7	0.20915471
194	0x3e32c601	0.17458345
195	0x3cfbe66a	0.030749518
196	0x3cbc623d	0.022996062
197	0xbeeeee86	-0.46666354
198	0x3e116f07	0.1420251
199	0xbda73554	-0.081644684
200	0xbe739335	-0.23786624
201	0x3bf46e58	0.007459443
202	0x3d8a1430	0.06742132
203	0x3e980489	0.2969096
204	0xbe42aab1	-0.19010426
205	0x3da71a5b	0.08159324
206	0x3e61d3d6	0.22053465
207	0xbc781b98	-0.015143298
208	0xbe520825	-0.2051092
209	0x3e2101ba	0.15723315
210	0x3d1f9f16	0.038970076
211	0x3e6a18b9	0.22860993
212	0xbd86ce3c	-0.06582305
213	0x3e26be43	0.16283517
214	0xbde9b25f	-0.11410975
215	0x3eb9943a	0.362459
216	0x3da74250	0.08166945
217	0x3cb1763c	0.021662824
218	0xbe231717	-0.15926777
219	0x3e34cb88	0.17655766
220	0x3b8a03c4	0.0042118747
221	0x3e0a6dbc	0.13518423
222	0x39b48ad0	0.000344357
223	0xbd7a7a5e	-0.061151855
224	0x3ddd7c7c	0.10814759
225	0x3de6ab7d	0.112631775
226	0x3d946393	0.07245555
227	0xbd9879db	-0.07445117
228	0x3e85325a	0.26014978
229	0x3e0f64dc	0.14003319
230	0x3cd7434b	0.026277205
231	0x3e4e3bde	0.20140025
232	0x3cf24caa	0.029577572
233	0xbeaf2c5b	-0.34213528
234	0xbea0b544	-0.31388295
235	0x3ea384e0	0.31937313
236	0xbe6fea92	-0.23429325
237	0xbe92d3b8	-0.28677154
238	0x3d985a87	0.07439142
239	0x3bab78b4	0.005232895
240	0x3de9eba6	0.114218995
241	0x3e0271e9	0.12738766
242	0x3cf64222	0.030060831
243	0xbe0ec03e	-0.13940522
244	0x3e4003fb	0.18751518
245	0xbd6297d9	-0.055320594
246	0x3e9990e6	0.2999336
247	0xbe9beee2	-0.3045569
248	0xbe2b5408	-0.16731274
249	0x3da96682	0.08271505
250	0xbe24259a	-0.16029969
251	0x3e6643b0	0.22486758
252	0x3dc61ccb	0.096734606
253	0x3e10a64d	0.14125939
254	0xbd4c20e2	-0.049836047
255	0xbe926797	-0.28594658
